SavedModels/mM2R/model_002.onnx (onnx, 46546 bytes, 21 tensors)

StatefulPartitionedCall/model/dense_9/MatMul/ReadVariableOp:0 f4 [32, 32]
000000 22 16 02 3e 86 85 ac bd d8 e0 b0 3d 70 8f 2d 3d
       0.12703755 -0.08423905 0.086366355 0.04237312
000010 82 be ce bd b0 75 3e be 10 5a a6 3d 4c 4f de 3d
       -0.1009493 -0.18599582 0.08122647 0.108549684
000020 62 4b ce bd 6c bb 9e 3d cb 2f 0f be 3f 0a 94 3e
       -0.10072972 0.07750592 -0.13983075 0.28914067
000030 ea 3e 21 3e 92 af 97 bd 5e 45 87 be 7a ba 67 3e
       0.15746656 -0.07406534 -0.2642011 0.22629729
000040 38 2e af 3d a2 2a 4a 3e 78 0a 94 be 5e 9f fd bd
       0.085537374 0.19742826 -0.28914237 -0.123839125
000050 48 67 6a 3d 1d 8a 1e be 8c 86 4f be fe 71 30 3e
       0.057227403 -0.15482374 -0.2026617 0.17230985
000060 10 6b 1d be 16 8a 17 3e e6 a7 75 3e 60 4e bb 3d
       -0.15372872 0.1479877 0.2398983 0.09145808
000070 78 34 cc 3d e8 24 5d 3d 40 b2 6e bc bc 81 43 3e
       0.09970945 0.053990275 -0.014568865 0.19092458
000080 6c 98 6d 3e f6 1a 14 3e 80 8b 2d be f6 87 80 3e
       0.23202676 0.1446341 -0.16947746 0.2510373
000090 46 ea 0b be 06 b4 af 3e d8 ab 19 3e 38 38 03 bd
       -0.13663587 0.34317034 0.1500696 -0.032036036
0000a0 1e 50 e6 bd 5d 0b 13 be 18 74 36 bd 7c 99 93 3e
       -0.1124575 -0.14359803 -0.04454431 0.28828037
0000b0 7e 31 26 3d 5b a6 98 be 70 83 fa bd fd bc 43 3e
       0.040574543 -0.2981442 -0.12232101 0.19115062
0000c0 0f 67 97 be f2 d6 32 3d c8 7f 07 be b9 54 95 3e
       -0.29570815 0.04366202 -0.13232338 0.291662
0000d0 02 6b f4 3d da 92 88 be e5 d6 c7 3d c9 ea 6b ba
       0.119344726 -0.2667454 0.09757785 -0.0008999524
0000e0 b6 00 83 bd 5d 86 95 3e 9b 65 a0 bc 04 1d 78 be
       -0.0639662 0.29204074 -0.0195797 -0.24229819
0000f0 8f 34 66 be 04 5e 35 3e 4a 51 46 3e a6 73 31 be
       -0.22480987 0.17711645 0.19366947 -0.17329273
000100 63 1e 81 be ec b6 73 be dc fa 6c 3e 35 e0 76 3e
       -0.25218496 -0.23800248 0.2314257 0.24108966
000110 05 ab 03 bd 00 8f 91 bd 5d df 98 3e 40 49 6d bc
       -0.03214552 -0.07107353 0.29857913 -0.014482796
000120 37 38 39 be 32 85 68 3e fc fe d0 3d 29 72 67 3e
       -0.1808785 0.2270706 0.102048844 0.22602142
000130 7c 9c 16 be 71 0e 17 be 04 ae f1 3d 4f 03 54 be
       -0.14708132 -0.14751603 0.11800769 -0.20704387
000140 dc 00 be 3d b6 c8 5a 3d 35 cd 20 3e ae 0a ee bd
       0.09277508 0.05341407 0.1570328 -0.11623131
000150 4f bd 52 bc c0 45 8a bc 12 3b 0a bd fc 06 93 3d
       -0.0128625175 -0.016878963 -0.03374774 0.071790665
000160 73 64 3f be 19 87 cf 3d 02 fa 21 3e 40 60 c3 bb
       -0.18690662 0.1013319 0.15818027 -0.0059624016
000170 52 6e fc bc 18 2c 28 3e df c1 8a be 53 e1 42 3d
       -0.030814324 0.1642307 -0.27101037 0.047578167
000180 1a 5e 89 3e ca 18 91 3e 09 f2 6f 3e f9 65 86 3e
       0.26829606 0.28339225 0.23432173 0.26249674
000190 f4 5d 6b 3d ca 06 94 3e 30 8c eb bc 58 ac ad bd
       0.057462648 0.2891143 -0.02875337 -0.084801376
0001a0 39 fd 58 3e 71 e5 86 bd 6c b2 bc 3d 25 ef fb bd
       0.21190347 -0.06586731 0.09213719 -0.123014726
0001b0 b6 de 10 be ee 2f 32 3e c6 10 9c bd dc 91 27 bd
       -0.14147457 0.17401096 -0.07620387 -0.040910587
0001c0 c1 0f 60 3e f8 b2 0b 3e 3b 1e 82 3e a6 62 dd bd
       0.2188101 0.1364249 0.2541369 -0.10809831
0001d0 2c 6c d4 3c 40 78 ba bc e5 fb 18 3c 40 00 62 3b
       0.025930487 -0.022762418 0.0093374 0.0034485012
0001e0 c2 c0 84 bb 94 4f b7 3d 53 38 07 bc a0 c6 2e 3c
       -0.004051299 0.08950725 -0.008253175 0.010667473
0001f0 55 45 46 3d 20 a0 2a 3e 1c 01 86 be 57 3b 88 be
       0.048405964 0.16662645 -0.2617272 -0.26607773
000200 9d c8 21 be dc 8a 50 3d 4a 73 89 3e 35 1d 22 be
       -0.15799184 0.050913677 0.2684577 -0.15831454
000210 0d 35 bb bd 43 99 6b 3e 34 10 9b bd 2c 63 1a 3e
       -0.09140978 0.23007683 -0.0757145 0.15076894
000220 4f 29 8f be 9b 61 9a bd 28 6e 4d bd 85 85 94 3d
       -0.27961203 -0.07538148 -0.05015388 0.07252029
000230 2f 1b 17 3e bc 66 df 3d fc 0d 7d be cd 53 1d 3e
       0.14756463 0.10908267 -0.24712366 0.15363999
000240 ff 5d 86 3e d1 33 de 3d bc ca 60 bd 20 4f b2 bd
       0.26243588 0.10849727 -0.054880843 -0.08706498
000250 df bf ab 3d 50 e3 58 be 10 d1 0a be 2d 1b 29 3e
       0.08386206 -0.21180463 -0.13556314 0.16514273
000260 a0 7a ff 3d e3 71 db bd 18 9b 73 3e 50 98 65 be
       0.12474561 -0.107150815 0.23789632 -0.22421384
000270 c2 80 ab be 3c a0 2e 3e b4 aa 96 be 96 87 52 3e
       -0.33496672 0.17053312 -0.2942711 0.20559534
000280 15 9d 1a bb 2d c8 01 bb 40 65 92 be 84 c9 9c bd
       -0.0023592163 -0.0019803152 -0.28592873 -0.076556236
000290 b1 01 f8 3d fc 03 cf 3d da 8c 6d be 11 4f 95 3e
       0.121096976 0.10108182 -0.23198262 0.29161885
0002a0 42 d2 9e bd 94 fa a3 3e 26 cf 98 be 20 fa 24 3d
       -0.07754947 0.32027113 -0.29845542 0.0402776
0002b0 86 da d6 3d 8a 4c 43 3e 82 97 60 be f9 96 46 be
       0.10490899 0.19072166 -0.21932796 -0.19393529
0002c0 fa 86 3b be 18 80 c4 bd 72 0f 5d 3d a1 7c 02 be
       -0.18313208 -0.095947444 0.053969808 -0.12742855
0002d0 b6 2b 30 be 70 80 98 be 1e dd 51 be e3 bc 8f be
       -0.17204174 -0.2978549 -0.20494506 -0.28073797
0002e0 e7 60 06 3e 0d 07 a4 3e 42 4b 45 3e fa 51 61 3e
       0.13122903 0.3203663 0.1926699 0.22003928
0002f0 cd 67 42 3d 65 35 6b 3d ee 90 81 be dd 92 15 3e
       0.047462273 0.057423968 -0.25305885 0.14606805
000300 01 26 b9 bc 89 05 2e be 7e 29 ad 3d d8 1e 13 3e
       -0.02260113 -0.16994299 0.0845518 0.14367235
000310 eb e1 99 3e 85 ca 95 3e 22 65 3a be 20 e5 4c bc
       0.30055174 0.29256073 -0.18202642 -0.0125057995
000320 56 0a 88 3c 71 17 1f bd c0 52 ac 3b bb a1 53 3e
       0.016606491 -0.038840715 0.005258888 0.20667164
000330 3b 8a 08 3d 82 35 97 be 54 10 0e 3d 1d eb 88 bc
       0.03333495 -0.2953301 0.03468354 -0.016713673
000340 07 0d 8c be 4d f1 fd ba 34 ae 64 3e a2 5f 39 be
       -0.2735369 -0.0019374281 0.22332078 -0.18102887
000350 c7 25 9d be f7 7a 79 be 1b 00 39 3e ab 4e bb 3c
       -0.30692884 -0.24363314 0.18066446 0.02286466
000360 0b 1f 0c 3c 4f 4f 9a be d4 de 32 be 88 a4 21 3e
       0.008552323 -0.30138633 -0.17467815 0.1578542
000370 03 cc 6a be b6 b2 9d bd 35 af 57 3e 9b 42 0c 3e
       -0.22929387 -0.07700102 0.2106293 0.13697283
000380 c3 11 84 be f0 f7 6a bd 38 56 51 3c 74 85 89 be
       -0.257948 -0.057365358 0.012776904 -0.2685963
000390 f3 ba e7 bd 9a 14 af bd 04 53 99 be 60 58 49 bd
       -0.113149546 -0.08548851 -0.29946148 -0.049156547
0003a0 06 80 68 3e ee 17 99 bd 3a 7e 91 be 48 85 5d 3e
       0.22705087 -0.07475267 -0.28416616 0.21632874
0003b0 de 3d 22 bd 75 5f 37 be 13 9f 9a be 3b d6 dc bd
       -0.039609782 -0.17907508 -0.3019949 -0.10783049
0003c0 9a f3 30 be 96 fb 32 be 88 20 1b 3e 19 00 87 3e
       -0.17280427 -0.17478785 0.15149128 0.26367262
0003d0 f8 f1 77 3e f3 33 85 3e a7 15 f8 bd 8b b8 0d be
       0.24213398 0.26016197 -0.12113505 -0.13839929
0003e0 0d 1a 41 be 64 52 4d 3e f0 e4 1c be ce 6b ed bd
       -0.18857594 0.20050961 -0.15321708 -0.11592828
0003f0 22 b1 84 be 01 5d aa 3d dd 4c 60 3e 64 50 00 bd
       -0.25916392 0.0831852 0.21904321 -0.031326666

StatefulPartitionedCall/model/dense_9/BiasAdd/ReadVariableOp:0 f4 [32]
000000 bf 73 50 3e d1 86 10 bc 17 25 17 3c b6 87 4d 3e
       0.20356654 -0.008821205 0.0092251515 0.20071301
000010 94 9e 2e 3e 9c 86 51 3e 00 00 00 00 00 00 00 00
       0.1705268 0.20461506 0.0 0.0
000020 c0 fa 6b be 67 9b dc 3d 00 00 00 00 9d ca 51 3e
       -0.23044872 0.10771828 0.0 0.20487447
000030 81 06 4c 3e 00 00 00 00 8e d7 c6 bd b4 e4 0d bd
       0.19924356 0.0 -0.097090825 -0.034641936
000040 b7 c0 c4 3b 76 9a 4f 3e 76 12 11 be 00 00 00 00
       0.0060044187 0.20273766 -0.14167199 0.0
000050 84 4f 52 be 00 00 00 00 35 88 50 3e 27 33 54 3e
       -0.20538145 0.0 0.20364459 0.20722638
000060 c2 8b 1f bc be 6f aa 3d 13 dd 39 3c 00 00 00 00
       -0.009737911 0.083220944 0.011344212 0.0
000070 0d c9 02 bd 1d 01 65 3c 71 55 52 3e b7 ff 6b bc
       -0.03193002 0.013977316 0.20540406 -0.014404229

StatefulPartitionedCall/model/dense_8/MatMul/ReadVariableOp:0 f4 [32, 32]
000000 17 c2 07 be f5 14 4c bd ba 17 27 bd e7 e5 43 be
       -0.13257633 -0.049824674 -0.04079411 -0.1913067
000010 7f b8 a7 bd 54 4e 99 be ba 24 77 3d 61 77 1b be
       -0.08189487 -0.29942572 0.06033776 -0.15182258
000020 34 59 39 be 3f c2 08 be 3e 17 5e 3e dc 2d 9b be
       -0.18100435 -0.13355349 0.21688554 -0.30308425
000030 3c 33 87 3e b5 5c a6 be 26 9c 8d 3c de 9a 5e 3e
       0.26406276 -0.32492605 0.017286371 0.21738765
000040 6a 11 22 bd b6 5a 25 3e e8 91 90 be f0 e2 85 3d
       -0.03956739 0.16147885 -0.28236318 0.065374255
000050 60 8e 83 bd 77 6b 07 3e 33 34 08 be 01 9c 83 be
       -0.0642364 0.13224588 -0.13301162 -0.2570496
000060 1a d7 93 be b0 ad b0 bc 38 f3 e9 bd 54 51 2a 3e
       -0.28875047 -0.021567196 -0.114233434 0.16632587
000070 a3 6f 3a 3e f3 89 88 3e 48 5a 08 3e dc 90 77 be
       0.18206649 0.26667747 0.1331569 -0.24176353
000080 44 7c 8d 3d e3 cf 8b 3e 96 96 23 be 6a e8 96 3d
       0.069084674 0.27307042 -0.15975413 0.07368548
000090 8c de 34 be 60 11 30 bd a5 3a 0b 3d ac 0e 34 3d
       -0.1766302 -0.04298532 0.033991475 0.043959305
0000a0 6f 2b 84 3e 54 f5 3d be 01 35 2c 3e e5 68 fc bd
       0.25814387 -0.18550617 0.16817094 -0.123246945
0000b0 e4 c1 24 bd 77 72 7c be 4a f5 58 3e 76 24 18 3e
       -0.04022397 -0.2465304 0.2118732 0.14857659
0000c0 3b e2 9c 3e 7c 18 6e 3e f5 3b 9c be d7 b1 3e be
       0.3064135 0.23251528 -0.30514494 -0.18622528
0000d0 f8 0e 9b be c9 32 84 3d 40 e3 d7 bb 00 71 de 3c
       -0.30284858 0.06454999 -0.0065883696 0.027153492
0000e0 56 ee 42 3d 7d fc 94 3e 87 ef e8 bd f1 55 a6 3d
       0.047590576 0.29098883 -0.11373811 0.08121861
0000f0 0a 05 b3 3d 84 1a f2 3d ff 7a 20 be 2b 42 20 3e
       0.087411955 0.11821464 -0.1567192 0.15650241
000100 a0 d4 32 bc 84 a3 94 bd 7b 7f 5f be e1 88 c0 bd
       -0.010914952 -0.07257751 -0.21825974 -0.094011076
000110 00 65 5a 3e e3 ba 42 3e a6 3c b7 bd c3 8a 80 3e
       0.21327591 0.19016604 -0.08947115 0.25105867
000120 ca 90 48 be ff 59 9a be 53 01 1d be df 35 39 be
       -0.19586483 -0.30146787 -0.15332536 -0.18086956
000130 84 03 12 3e c0 76 1f 3d 62 3d 09 3e f0 a6 e2 bd
       0.14259154 0.03893161 0.13402322 -0.11066997
000140 d5 01 21 3e 12 a9 86 3e e0 1c 14 bd da ed 25 be
       0.15723355 0.26300865 -0.03616035 -0.16204014
000150 4c dd 50 3e 05 b3 41 be 48 a5 d2 3d c0 fd bf 3c
       0.20396918 -0.18915947 0.10285431 0.023436427
000160 32 38 26 be 99 04 86 be 28 c4 90 3e 59 07 16 bc
       -0.16232374 -0.26175383 0.28274655 -0.009157025
000170 a9 1a 84 be 62 32 a7 bd 52 c0 8e be f1 1b 62 be
       -0.2580159 -0.08163907 -0.27881104 -0.22080971
000180 a0 ec aa 3c 3a 2e c3 bd 39 90 26 be 9e 70 ec bd
       0.020864785 -0.095303014 -0.16265954 -0.115449175
000190 66 25 35 be 80 6d 73 3b d5 13 8b 3e 72 66 45 3e
       -0.17690048 0.0037144125 0.27163568 0.19277361
0001a0 7e 0e 22 be 44 d6 41 3e 95 2c 81 3e 60 cc 07 bd
       -0.15825841 0.18929392 0.25229326 -0.03315389
0001b0 6f 8d 00 be fc 65 6d be 54 08 44 3e 10 26 98 3d
       -0.12553953 -0.23183435 0.19143802 0.07429135
0001c0 00 b2 2e 3e 98 4b 87 bd 50 4b f8 3c 56 e5 87 bd
       0.17060089 -0.06606215 0.03030935 -0.06635539
0001d0 38 95 de bd 00 88 af 3d 1c 61 fb bd 2f 1a 7e be
       -0.10868305 0.08570862 -0.122743815 -0.24814676
0001e0 56 fe 90 be b4 db 8a be a8 da 98 be 98 9a 1e 3e
       -0.28319043 -0.27120745 -0.2985432 0.1548866
0001f0 e2 bb 42 3e b6 40 5c be f0 28 bb 3c 00 7f ce 3b
       0.19016984 -0.2150906 0.022846669 0.0063017607
000200 ec 7b b4 bd 44 4f 94 3e 19 00 1b 3e 0d 14 97 be
       -0.08812699 0.28966725 0.15136756 -0.29507485
000210 89 e0 63 3e 06 b4 2e be 5f 29 a1 3e 32 07 24 3e
       0.22253622 -0.17060861 0.31476876 0.1601837
000220 7a 98 25 be c7 3d cf bd 22 92 2a 3e 0d bc a7 3e
       -0.16171446 -0.10119205 0.16657308 0.3276066
000230 a2 42 6f bd fb 53 84 3d 3e a0 84 be d7 fc 0b be
       -0.058413155 0.064613305 -0.25903505 -0.1367067
000240 83 d7 c7 3d 3c f1 43 3d d8 16 8a bd 32 10 9f 3e
       0.097579025 0.04783748 -0.06742638 0.31067044
000250 94 9a a8 bc a1 b9 c0 3b e6 5a ee bd f8 6c 4a be
       -0.020581521 0.0058815037 -0.11638431 -0.19768131
000260 2b 32 55 3d 12 31 d0 bd 52 ac ac 3d 65 2c 45 bd
       0.052049797 -0.101656094 0.08431305 -0.04813804
000270 21 8d c0 bd ac 81 1a be 72 38 98 be c7 3a 7a 3d
       -0.09401918 -0.15088528 -0.29730564 0.06109121
000280 dc 86 e5 bd 49 fb 13 bd 69 41 d8 bd d2 9d 2f bb
       -0.11207363 -0.036128316 -0.10559351 -0.002679695
000290 68 df 31 bc 2e fa 48 3d 4f 34 7e 3e 75 9e 1a 3c
       -0.010856487 0.049066715 0.24824642 0.009437193
0002a0 1c bc e2 bd 80 1a e2 bd 4e 93 ba bd a3 03 77 3e
       -0.11071035 -0.11040211 -0.091101274 0.24122481
0002b0 52 22 39 3e d4 e3 0f be 64 95 24 3e 50 22 19 3d
       0.18079498 -0.14051753 0.16072613 0.03738624
0002c0 75 d9 4c 3e 03 05 74 3e ae ea 91 bd b6 71 f0 bd
       0.20004828 0.23830037 -0.0712484 -0.11740439
0002d0 b7 6b 8f be b6 05 5f be 98 31 c3 3d b8 2c 68 be
       -0.28011867 -0.21779522 0.09530944 -0.22673309
0002e0 e0 77 44 be e0 58 db 3c c3 12 84 3d 87 1b 05 be
       -0.19186354 0.026775777 0.06448891 -0.12998782
0002f0 4a 37 97 be cc 6c 09 be c0 47 a8 bd 1d fd 5e 3e
       -0.2953437 -0.13420409 -0.0821681 0.21776243
000300 f6 c5 f7 bd b2 8e 7f be fc d2 b7 bd 75 15 88 be
       -0.12098305 -0.24956778 -0.08975789 -0.2657887
000310 10 2c 29 3d 0c ba 0c 3e 58 41 3b bd 4b 5a 26 be
       0.041301787 0.13742846 -0.045716614 -0.16245382
000320 80 66 62 3b b4 40 42 be 83 1a 2a be b5 be 98 be
       0.0034545958 -0.18969995 -0.16611676 -0.29832998
000330 0b 87 85 3e 6c 55 a8 3d 3a 24 18 be e0 78 c1 bd
       0.26079592 0.08219418 -0.1485757 -0.09446883
000340 b8 bc bb 3d 52 3d 58 3e 30 1b 65 3d 36 3d 1b be
       0.091668546 0.21117142 0.05593413 -0.15160069
000350 03 e8 92 3e 3c 1a 12 be 90 7b d2 3c f0 c2 b6 bc
       0.28692636 -0.1426782 0.025693685 -0.02230975
000360 1e 5d 92 be 11 cb 91 3e ac 3c 0b 3e 2e 64 27 3e
       -0.28586668 0.2847524 0.13597363 0.1634681
000370 1e 9e 8f be c6 21 9b bd 10 e4 b4 bd ee f4 92 be
       -0.2805032 -0.07574801 -0.08832562 -0.28702492
000380 e2 04 7c be ce 75 35 3e c2 ec 9d 3d 26 42 1b 3d
       -0.24611238 0.1772072 0.077111736 0.03790488
000390 f4 44 9a 3d d2 2f a6 be 8a 27 aa 3d c3 6f 0b 3c
       0.07532683 -0.3245836 0.08308323 0.008510533
0003a0 38 38 f9 3d f2 d6 30 3e dd ac aa 3d af 8a ab 3b
       0.12168926 0.17269495 0.08333752 0.005235038
0003b0 f9 1d 94 be c8 14 88 3d f9 77 26 be 58 6d 3e be
       -0.28929117 0.06644589 -0.16256703 -0.18596399
0003c0 91 e0 a3 3e a5 57 7c 3e 6e 95 80 be ff 84 09 3d
       0.32007268 0.24642809 -0.25114006 0.0335741
0003d0 a6 1f d3 bd 0c 07 ce bc f4 2c 94 3d 1c 48 2d be
       -0.10308771 -0.025149845 0.07235137 -0.16922039
0003e0 57 0a 71 3d 53 9e 56 be 43 2f fa bd 94 33 24 be
       0.05884775 -0.20958833 -0.12216046 -0.160353
0003f0 75 d7 0a be a1 9d 96 be a5 08 38 be 1a c8 56 be
       -0.13558753 -0.29417136 -0.17972048 -0.2097477

StatefulPartitionedCall/model/dense_8/BiasAdd/ReadVariableOp:0 f4 [32]
000000 00 00 00 00 a6 a5 44 3e 8d 63 2c bd 33 18 02 bd
       0.0 0.19203815 -0.042087127 -0.03176136
000010 f1 73 d8 3d 78 ea 98 bd 66 2b 3c 3e 64 5b 52 bc
       0.10568989 -0.07466596 0.1837593 -0.012839172
000020 00 00 00 00 08 ac 81 bd d3 2d 0c 3e e0 27 42 3e
       0.0 -0.063316405 0.13689356 0.18960524
000030 07 d0 e7 bb 1e f3 ec bc 1e f5 2d bd 00 00 00 00
       -0.0070743593 -0.028924521 -0.04247009 0.0
000040 df 73 47 3e 6f c3 32 3e 00 00 00 00 4c 7f 3b 3e
       0.19477795 0.17457364 0.0 0.18310279
000050 57 4e 01 bc 87 9a c7 bc 00 00 00 00 00 00 00 00
       -0.007892213 -0.024365677 0.0 0.0
000060 a2 05 2e bd 00 00 00 00 96 8d 2d 3c 07 4d 2d 3e
       -0.04248584 0.0 0.010592839 0.16923915
000070 5e 7b 68 bd 00 00 00 00 00 00 00 00 14 c0 c4 3b
       -0.056758277 0.0 0.0 0.006004343

StatefulPartitionedCall/model/dense_7/MatMul/ReadVariableOp:0 f4 [32, 32]
000000 df d4 66 3e b5 6d 91 3e 0e b5 90 3c e6 dc 88 be
       0.22542141 0.28404012 0.017664459 -0.26731032
000010 e6 97 21 3e 99 2a 43 be ca bb 6e 3e d1 9e 8f bd
       0.15780601 -0.19059218 0.23313823 -0.07012714
000020 9d db 90 3e 1f c4 92 3e ba 0c 92 be da 6b 71 3d
       0.28292552 0.28665254 -0.28525335 0.058940746
000030 22 6c 81 be dd 32 5a be 15 51 85 be 40 15 1b bd
       -0.2527781 -0.21308465 -0.26038423 -0.037862062
000040 5e e0 a8 3e 4f 4e 5f be ca 82 0b 3e 58 da 81 be
       0.3298368 -0.21807216 0.13624111 -0.25361896
000050 9f 06 81 bd 65 47 54 3e f3 ca 51 be ff a3 9c 3d
       -0.06300091 0.2073036 -0.20487575 0.07648467
000060 58 01 47 3e 39 96 5b 3e 93 1c 74 3e 5a 6c 16 be
       0.19434106 0.21444024 0.23839025 -0.1468977
000070 82 76 88 be 41 7a 75 be 82 72 64 be 45 2c b5 3d
       -0.26652914 -0.23972417 -0.22309306 0.08846334
000080 18 81 4a bd f4 7a 8d 3d d9 26 2f be f2 b3 53 3e
       -0.04943952 0.06908217 -0.17104663 0.20674112
000090 46 eb 54 3e de a6 6e 3e 0a 4d 7b 3e 80 53 87 be
       0.20792875 0.23305842 0.24541107 -0.26430893
0000a0 4e 3c 71 3e 04 16 5e be c8 ff 1b 3d a0 db 50 3d
       0.2355816 -0.21688086 0.03808573 0.0509907
0000b0 c0 14 3f be e0 6c 1e 3c 98 81 1f 3d e4 90 3d be
       -0.18660259 0.0096695125 0.03894195 -0.18512303
0000c0 27 3e 6c be 98 4a 0a 3e 4a 7a 09 3e fc 69 89 be
       -0.23070584 0.13505018 0.13425556 -0.26838672
0000d0 46 92 a1 bd f4 9d 3e be 66 8f 91 be fb d4 93 be
       -0.078892276 -0.18614942 -0.28429717 -0.2887343
0000e0 86 3f 73 3e 04 1a d2 bd d4 62 a2 3d ea 04 3c be
       0.23754701 -0.10258868 0.07929006 -0.1836125
0000f0 d2 1c 48 be ff 15 8e 3e 52 28 12 3e ce 3b f4 bd
       -0.19542244 0.27751157 0.14273193 -0.11925469
000100 c4 90 80 3e 24 a1 8d 3d 3d 45 ae 3d 56 a1 55 be
       0.25110447 0.06915501 0.085093 -0.20862326
000110 20 f4 1b 3e 9a 11 6a 3e a8 0d 54 bd 11 9e 55 be
       0.15229845 0.22858277 -0.051770836 -0.20861079
000120 46 0f 92 bd f2 45 1f be 06 10 01 3e 0c 1c b9 3d
       -0.071318194 -0.15554026 0.12603769 0.09038553
000130 80 b8 4f 3d a0 00 74 3e 43 61 d8 bd cf 1a 29 be
       0.050713062 0.23828363 -0.10565426 -0.16514133
000140 b6 39 62 3e 34 fe 8d be 8b 1e 91 be 99 79 0a be
       0.22092327 -0.27733004 -0.28343615 -0.13522948
000150 e4 f4 a0 bd 11 72 44 3d bd 99 9f be 22 70 94 be
       -0.07859209 0.047960345 -0.3117198 -0.289918
000160 a6 82 a5 3d 50 29 49 3e 97 09 97 bc 70 52 b4 be
       0.0808156 0.19644666 -0.01843719 -0.35219145
000170 db 2f 01 3e 04 b6 86 3b 2a ae 7f 3e 2a 79 19 3e
       0.12615912 0.0041110534 0.24968782 0.14987627
000180 02 5d 83 ba 95 d4 82 be 3d 80 e8 bd ac 18 35 3e
       -0.0010022225 -0.25552812 -0.113525845 0.17685193
000190 b8 e6 f5 bd 94 4b 56 be 10 b8 1c 3e b0 18 ea 3d
       -0.12006897 -0.20927268 0.1530459 0.1143049
0001a0 8b 81 88 be d7 22 92 bd 89 65 25 be 5a be 21 be
       -0.26661333 -0.071355514 -0.16152014 -0.1579527
0001b0 b8 bb 71 be 03 c1 94 3e f5 e4 58 be 43 19 5f be
       -0.23606765 0.29053506 -0.2118109 -0.2178698
0001c0 76 80 14 3c 5e 43 09 be 12 62 49 be 9b 27 1a 3e
       0.009063831 -0.13404605 -0.19666317 0.15054171
0001d0 61 d0 57 3e 13 7e 14 3e ac 7c f0 3d 3c e3 8b 3e
       0.21075584 0.14501218 0.11742529 0.27321804
0001e0 c6 28 16 bc fe 2e 67 be fe d3 3d be 14 e4 45 be
       -0.009164995 -0.2257652 -0.185379 -0.19325286
0001f0 6c 64 19 3e ba 3a 64 be e8 17 ea b9 e0 1d 8e 3d
       0.14979714 -0.22288027 -0.0004464977 0.06939292
000200 93 c1 52 be 5f d6 2b bd 8d 67 3c be 1c 04 64 be
       -0.20581655 -0.041952487 -0.18398876 -0.22267193
000210 7b 03 8e be 0b 8f 88 be 01 ba 8a 3e c7 72 e0 bd
       -0.2773703 -0.26671633 0.27095035 -0.10959392
000220 66 d8 0c 3e 08 fc 82 bd 88 e6 1b 3d a8 9b c4 3d
       0.13754424 -0.063957274 0.03806165 0.096000016
000230 50 60 0f 3d 48 e8 9f 3e ef 82 ee 3d 8f 35 96 3e
       0.03500396 0.31231904 0.11646067 0.29337737
000240 d1 fc 3c 3e 84 cc 3f 3e 28 70 06 3e 6e d7 e3 3d
       0.18455817 0.1873036 0.13128722 0.11125074
000250 a5 ef 7a 3e 6c 5e 36 bb f0 f5 9e be 39 dd 77 3d
       0.2450548 -0.0027827276 -0.3104701 0.06051371
000260 7b 8b 98 3e 31 24 61 3e c5 2d 11 bd 5f a2 67 be
       0.29793915 0.21986462 -0.03544404 -0.22620533
000270 56 6c 67 3e b7 76 89 3e 9c e6 f3 bd 95 03 02 3e
       0.2259992 0.26848385 -0.119092196 0.12696679
000280 b6 df 16 3e 28 25 9d 3d f3 ef 87 3e b0 9a 89 bd
       0.14733776 0.076731026 0.26550254 -0.067189574
000290 40 d8 74 3c 5a 94 b1 bd 9f 78 9a 3e de 06 27 be
       0.014944136 -0.08670874 0.30170152 -0.16311213
0002a0 40 fc fb 3c 68 3e 70 bd fa 00 29 3e 68 90 37 bd
       0.03075993 -0.058653265 0.16504279 -0.04481545
0002b0 22 03 06 3e 9a 87 54 3e 8b db 89 3e d0 6a 3a 3d
       0.13087133 0.20754853 0.2692531 0.04551202
0002c0 d0 03 d5 3d 20 d5 fe 3c 58 ad 88 be 34 14 de 3d
       0.10401118 0.031107485 -0.2669475 0.10843697
0002d0 d2 1e 3f 3e 8c b7 a4 bd b9 10 9b 3e 95 54 87 3e
       0.18664101 -0.08042821 0.30286196 0.26431718
0002e0 62 9f 68 3e d8 ec d1 3d 3a e1 d6 bd 13 ea 80 3e
       0.2271705 0.102502525 -0.10492177 0.25178584
0002f0 c0 6e 84 3c 5e e9 68 be f2 58 06 3e c9 1e 9c 3e
       0.016166091 -0.22745273 0.13119867 0.30492237
000300 50 4b 90 3d a6 67 55 3d 99 ac 40 3e 4c ee 6b bd
       0.07045615 0.0521008 0.18815841 -0.057600304
000310 02 31 65 3e f2 a8 86 3e db 88 8a 3e 82 24 08 3e
       0.22381976 0.2630077 0.27057537 0.13295177
000320 74 e9 8d bd 9c 04 46 3e be 6f 5f be 27 71 b0 bd
       -0.06929293 0.19337696 -0.2181997 -0.08615332
000330 90 dc 03 bd 8c 1c 89 3e 25 55 d7 bd 93 14 80 be
       -0.032192767 0.26779592 -0.10514287 -0.25015697
000340 39 e0 16 3e 2d 80 d6 bd 00 2e 4e bd 1e 21 e6 3d
       0.14733972 -0.10473666 -0.050336838 0.11236785
000350 b4 19 81 3e 31 be 95 be 73 c3 84 3e bd 6a 02 3e
       0.25214922 -0.29246667 0.25930366 0.1273603
000360 37 ee 4d be e9 36 3f 3e 3d ce 35 be 1b 91 7b be
       -0.20110403 0.1867329 -0.17754455 -0.24567072
000370 95 9d 68 3e a8 90 8a bd 4e d1 50 3e d1 9f f5 3c
       0.22716363 -0.06765872 0.20392343 0.029983433
000380 91 f9 9c 3e 8a 52 84 bd f7 44 eb bd 54 f6 a2 3d
       0.30659154 -0.064610556 -0.114877634 0.079571396
000390 5a bb 91 bd ee d3 58 3e e1 3b 9c 3e c3 88 e9 bd
       -0.071158126 0.21174595 0.30514434 -0.11403038
0003a0 d8 44 73 be 64 96 de 3c 15 a4 05 be 41 38 94 3e
       -0.2375673 0.027171321 -0.13050874 0.28949168
0003b0 35 5d 82 3e 8c 62 94 bd 6c 37 9b 3e 0d c3 98 3e
       0.25461736 -0.07245359 0.3031572 0.29836312
0003c0 49 48 87 be e5 5c 76 bd 00 f4 9e b9 7e 6a 98 be
       -0.26422337 -0.060147185 -0.00030317903 -0.29768747
0003d0 6e 4b 7f be 8e 31 62 3e da 35 07 be a5 3c 9a 3d
       -0.24931118 0.22089216 -0.13204136 0.07531098
0003e0 27 2a 55 3e 22 21 31 be 2a f4 af bd 94 04 e3 3d
       0.20816861 -0.17297795 -0.085914925 0.110848576
0003f0 88 d9 bf bd 95 2b 8d be 45 ad 07 be af a0 93 3d
       -0.09367663 -0.27572313 -0.13249691 0.07208382

StatefulPartitionedCall/model/dense_7/BiasAdd/ReadVariableOp:0 f4 [32]
000000 77 99 a5 3d 55 05 31 3e 4b 62 61 bd 00 00 00 00
       0.08085912 0.1728719 -0.05502538 0.0
000010 e4 3f 34 3e 92 eb 19 3c 00 00 00 00 60 79 33 3e
       0.17602497 0.009394543 0.0 0.1752677
000020 00 00 00 00 0a 90 b5 3b 00 00 00 00 10 9e 36 3e
       0.0 0.0055408524 0.0 0.17833734
000030 00 00 00 00 22 6f 39 3e 95 f2 63 bc 00 00 00 00
       0.0 0.181088 -0.0139128165 0.0
000040 93 03 12 3e f4 51 37 3e 00 00 00 00 cf 93 09 3c
       0.14259176 0.17902356 0.0 0.008397057
000050 e2 04 27 3e f1 7c ca bc f2 e6 6b bc 55 7a 2a 3e
       0.16310456 -0.02471778 -0.014398323 0.16648228
000060 29 59 f2 bc 25 90 25 3e 49 60 67 bd c1 7d b8 bc
       -0.02958353 0.16168268 -0.05648831 -0.022520902
000070 56 df 29 bc 8e da 63 3d 5d f2 9c bc 11 b2 72 bc
       -0.010368189 0.055628352 -0.019158537 -0.014812962

StatefulPartitionedCall/model/dense_6/MatMul/ReadVariableOp:0 f4 [32, 32]
000000 59 75 e2 3d 40 5f 3f 3e 5e fb 05 3e 56 c5 26 3e
       0.110575385 0.18688679 0.1308417 0.16286215
000010 43 d2 b9 3d e0 70 53 bc 18 39 6c 3e 44 8e 69 3e
       0.09073307 -0.0129053295 0.23068655 0.22808176
000020 69 45 e7 3d cd 1a 97 3e 24 7c c3 bc 90 53 b8 bc
       0.11292536 0.29512635 -0.023862906 -0.022500783
000030 4e 98 25 3e 3c 59 0e 3e 7a ac 8c 3e e5 da 0d 3e
       0.16171381 0.13901228 0.2747534 0.13853033
000040 1b 7c 5f be ef d5 21 bd 34 5b 32 be a7 b0 42 3d
       -0.21824686 -0.039510664 -0.17417604 0.04753175
000050 99 25 6e be 96 87 2b 3e 9e 04 38 3d c7 e9 7e be
       -0.2325653 0.1675094 0.04492628 -0.24893866
000060 e7 ac 62 3e c6 db f4 bb 64 bb 71 be cb 0e c9 bd
       0.2213627 -0.007472488 -0.2360664 -0.09817275
000070 76 fb cc 3d c5 1f 36 3e 36 1f 7c 3e 32 8e 97 be
       0.100089 0.17785557 0.24621281 -0.29600674
000080 d2 a7 7d 3e 92 27 1d be a2 f8 29 3e 29 9c 9b be
       0.2477105 -0.15347126 0.16598752 -0.30392578
000090 e4 89 90 3e 74 2d c3 3d 5f 6e 82 bc d8 f3 0c 3e
       0.28230202 0.09530154 -0.01592177 0.13764894
0000a0 9b ea cd be 42 fe a2 bd b7 5a 7f bd f9 63 84 be
       -0.40218052 -0.07958652 -0.06234237 -0.25857523
0000b0 54 22 44 bd 88 50 16 3e 66 0c 87 3b fa 03 ba be
       -0.0478843 0.14679158 0.004121351 -0.3633116
0000c0 02 97 3c 3e f5 46 cb bd a1 5e da bd 6f 7d 2e 3e
       0.1841698 -0.09925643 -0.1066258 0.17040037
0000d0 c4 b6 75 be 90 16 fb 3d 77 59 5b 3e d7 f6 95 3e
       -0.23995501 0.12260163 0.21420847 0.29289886
0000e0 c3 f3 94 3e ba 86 85 be e1 6a 48 3c e1 2b 80 be
       0.29092225 -0.2607935 0.012232513 -0.25033477
0000f0 55 70 72 be 1f 5d c5 3d 88 64 26 3d 76 04 14 3e
       -0.23675664 0.09636902 0.040623218 0.14454827
000100 bf 28 f5 3d 9c 44 bb 3d 1c 1a c8 bd 99 61 7a be
       0.11970662 0.091439456 -0.09770605 -0.24451293
000110 b8 d3 6c bc 64 0f 73 bd 98 f9 a0 3e 9b ce 07 3e
       -0.014454775 -0.05934085 0.31440425 0.13262407
000120 59 17 a9 be 34 b1 c4 bd 5a 96 d7 3c 08 56 4b be
       -0.33025625 -0.09604111 0.02631681 -0.19857037
000130 02 be 7c 3e ca df 61 be f2 cd f8 3d 03 29 3b bd
       0.24681857 -0.22058025 0.12148656 -0.04569341
000140 f7 99 71 3c 56 5b 95 3d 41 80 0d 3d 13 cb 70 bd
       0.014746181 0.072928116 0.03454614 -0.058787417
000150 f8 1c ec bd 14 6e 8d be bf 91 93 3d c3 92 db bc
       -0.11528963 -0.27623045 0.07205533 -0.02680338
000160 05 11 56 be a8 a3 7f be 6f 14 70 3e e8 3b 51 be
       -0.2090493 -0.24964774 0.23445295 -0.20433009
000170 ec 9b 4e be 5f 74 43 bd 25 57 ad bd 80 2e 00 3b
       -0.20176667 -0.047718402 -0.08463887 0.0019558966
000180 69 1d 7c 3e 50 aa 79 bd 99 19 0f be 3c 65 87 be
       0.24620594 -0.06095344 -0.13974608 -0.26444423
000190 2f 22 f1 3d 62 16 36 be d6 d2 06 3e 9f 22 81 be
       0.11774098 -0.17781976 0.13166365 -0.25221726
0001a0 fb c0 a9 3b ee ae d6 3d 64 16 70 3e 9c b3 f1 3d
       0.005180476 0.10482584 0.23446041 0.11801836
0001b0 81 48 59 be 6d 27 1d be a3 49 e2 3d b8 9a d1 3d
       -0.21219064 -0.15347071 0.11049201 0.102345884
0001c0 cd d2 8b be 08 f2 b0 bc 19 25 be ba 88 f6 a1 be
       -0.27309266 -0.021599784 -0.0014506906 -0.316334
0001d0 fb da 59 be c5 2e 18 be 0c ac 0b 3e 2d 3d f1 bd
       -0.2127494 -0.14861591 0.1363985 -0.117792465
0001e0 f6 84 ae 3d fa 64 6e be 33 f8 df 3d c2 a5 40 be
       0.08521454 -0.23280707 0.10936012 -0.18813232
0001f0 36 0d a8 bd bc 57 0e be e2 8d 6d be 15 c4 94 3e
       -0.08205645 -0.13900656 -0.23198655 0.2905585
000200 1a f6 22 3e 48 63 91 be 4b 99 3c 3e 28 cd 8d be
       0.15914193 -0.28396058 0.18417852 -0.27695584
000210 06 e7 2a be 00 61 af 3a 26 09 45 3e 14 31 7d 3e
       -0.16689691 0.0013380349 0.19241771 0.24725753
000220 ae a1 9e 3c 63 9e 00 be f1 e9 a3 3e 94 4c 60 be
       0.019364204 -0.1256042 0.3201442 -0.21904212
000230 60 d9 10 3c a4 d6 26 3e b0 7f 0b be de 96 ff 3d
       0.008840889 0.16292816 -0.13622928 0.124799475
000240 ad 5e ee 3d e2 0e 9a 3e b3 14 23 3e 34 78 a0 bd
       0.11639152 0.3008948 0.15925865 -0.07835427
000250 92 18 93 3e 03 be 01 be ea 20 5b be e5 f3 3e be
       0.28729683 -0.1267014 -0.21399274 -0.18647726
000260 86 95 c3 3d 75 c3 4e 3e 99 b0 6d 3e 3c bd d3 3d
       0.09550004 0.20191748 0.23211898 0.10338828
000270 9f e0 01 3d 36 9a 42 3e c5 3b 41 3d 4c a2 92 be
       0.031708356 0.1900414 0.04717614 -0.28639448
000280 39 99 f0 3d 32 90 d9 bd e6 27 79 3e b1 c6 01 3e
       0.11747975 -0.10623206 0.24331626 0.12673451
000290 0f 32 5e be f6 3c 5e 3e f1 a3 6f be a4 16 1d be
       -0.21698783 0.21702942 -0.23402382 -0.15340668
0002a0 1e ae 13 bd 2c 59 8f bd 4f 7c 7e 3e 5e c1 32 be
       -0.036054723 -0.0699943 0.24852107 -0.17456576
0002b0 95 03 7b be 03 e6 72 3e 08 e3 95 3e 35 e8 03 3c
       -0.24513085 0.23720555 0.29274774 0.008050968
0002c0 d4 41 6a 3e e3 4a f3 3d 30 28 76 be 56 70 b4 be
       0.22876674 0.11879518 -0.24038768 -0.35241956
0002d0 4c 42 1b be b8 b4 61 be c8 2b c6 3d 33 9f a2 3d
       -0.15162009 -0.22041595 0.09676319 0.07940521
0002e0 11 c6 65 3e 91 57 36 bd 0a cb 9e bd 9a a0 f2 bc
       0.22438838 -0.044517104 -0.077535704 -0.029617596
0002f0 2b f4 72 3e 25 8b e5 bc b1 2c 56 be f2 f4 4d be
       0.23725955 -0.02802045 -0.20915486 -0.2011297
000300 bb 35 60 be 04 fb d9 3d 56 7d 08 3e 46 57 e8 bd
       -0.21895497 0.106435806 0.13329062 -0.11344771
000310 51 d2 ac bd 32 05 95 be c0 97 86 3e 98 bb 99 be
       -0.08438552 -0.29105526 0.2628765 -0.30025935
000320 37 3f ac be a9 61 f2 3d e8 56 6c 3e 14 59 8f be
       -0.3364198 0.118350334 0.23080027 -0.2799765
000330 4d 32 19 be 30 c4 58 be 56 56 5f be b1 09 2a be
       -0.14960594 -0.2116859 -0.21810278 -0.1660526
000340 29 98 53 3e c7 16 40 3e c0 df ee bd e6 6e 7c be
       0.20663513 0.18758689 -0.11663771 -0.2465168
000350 dc 77 7a 3e 7e 6e 65 be c7 3c 91 3d 32 d5 60 3e
       0.24459785 -0.2240543 0.070916705 0.21956328
000360 28 00 40 be 9f f7 02 3d c9 45 7b 3e 86 2d 2d 3e
       -0.1875006 0.03197443 0.2453834 0.16911897
000370 01 2d a2 3e e5 43 1e 3e 06 c0 9c 3e 1a b7 80 be
       0.3167496 0.15455587 0.30615252 -0.25139695
000380 56 c0 4f 3e 58 9d 9a 3d ba 83 8b be 37 89 6d 3e
       0.20288214 0.07549542 -0.27248937 0.23196875
000390 d1 91 f1 3d 6e 28 6c 3e 74 0d 6d 3e bb fc bb bd
       0.117953904 0.23062298 0.23149663 -0.09179064
0003a0 35 e5 73 3e b5 0e 8e be 42 00 a6 3d 58 45 d7 3d
       0.23817904 -0.27745596 0.08105518 0.10511273
0003b0 8c 73 12 bd c0 0b 2f be e0 f4 07 3d de 68 57 3d
       -0.035754725 -0.17094326 0.033192515 0.052590244
0003c0 34 88 48 3e 09 b0 8d be ad b8 59 3e 6d 66 1e 3d
       0.19583207 -0.27673367 0.21261854 0.0386719
0003d0 59 6a 65 be cf 36 53 3e ee d5 55 be 61 a7 74 3d
       -0.2240385 0.20626377 -0.20882389 0.059729937
0003e0 58 4b 31 be fb da 50 3e 72 9e 88 be 08 48 e0 3d
       -0.17313898 0.20396034 -0.26683384 0.10951239
0003f0 54 5e fa bd 00 0b 44 be 80 fa e2 3d 8e 3b 42 be
       -0.12225023 -0.19144821 0.11082935 -0.18968031

StatefulPartitionedCall/model/dense_6/BiasAdd/ReadVariableOp:0 f4 [32]
000000 f2 43 ee 3c 00 00 00 00 78 1e 79 3d e5 66 21 3d
       0.029085133 0.0 0.060820073 0.03940477
000010 44 65 f1 3b 00 00 00 00 a6 e1 11 3e 3a 29 2d bd
       0.007366808 0.0 0.14246234 -0.042275645
000020 79 1f 2e be a4 a3 61 bc 70 4c 1a 3e 00 00 00 00
       -0.17004193 -0.013771925 0.15068221 0.0
000030 b4 d7 a5 bc 46 84 e1 bb 8b 89 34 3c 46 0e 44 3c
       -0.020244457 -0.0068822233 0.011019121 0.011966294
000040 74 b4 14 3e 8d b6 12 3e a3 eb 26 3e 10 70 ee bd
       0.14521962 0.1432745 0.16300826 -0.11642468
000050 76 ca 1e 3e 29 65 57 3c 99 aa e3 bd 30 e1 25 3e
       0.1550692 0.013146677 -0.11116523 0.16199183
000060 49 94 28 3e f6 67 2b bc 31 0d 9e 3d d1 7c 17 3e
       0.16462816 -0.010461798 0.0771736 0.14793707
000070 b6 22 1d 3e be 08 22 3e 9f d0 27 3e 00 00 00 00
       0.15345272 0.15823647 0.16388176 0.0

StatefulPartitionedCall/model/dense_5/MatMul/ReadVariableOp:0 f4 [32, 32]
000000 0b 1b 61 3d fa 6a 67 bd 64 dc 2e 3e 69 c5 c9 bb
       0.05495743 -0.056498505 0.1707626 -0.0061575663
000010 a8 64 a4 3e 91 a2 8e 3d 53 3f de 3d d5 f3 23 3d
       0.32108045 0.06964601 0.10851922 0.04002746
000020 3d 04 ac 3e ff cd 5b 3e 8d aa 15 3e 24 99 96 be
       0.33596984 0.214653 0.14615841 -0.29413712
000030 5e 45 ce bd 9c 97 92 3e bc eb 9b 3d 77 78 5b be
       -0.100718245 0.28631294 0.07613322 -0.21432672
000040 ee 35 62 be ca 2a 79 3e 53 99 2d be ed f7 75 be
       -0.22090885 0.24332729 -0.1695302 -0.24020357
000050 2e b5 30 be 75 31 a8 3e 8a 52 2e 3e fc 14 22 bc
       -0.17256615 0.32850233 0.17023674 -0.009892698
000060 ab fc 10 3e 56 36 9f 3e 6a c2 e6 3d ee e4 ab bd
       0.14158885 0.31096143 0.1126755 -0.08393274
000070 53 12 56 3e ce d0 85 be 46 43 41 bd ec 1e 79 bd
       0.20905428 -0.26135868 -0.047183298 -0.060820505
000080 85 bc 84 3e e0 77 5f be ba 3a 08 be 54 38 58 be
       0.2592508 -0.21823072 -0.13303652 -0.21115237
000090 1c 60 03 3e 0c ed 82 3d 71 db 4d 3d 66 77 85 bd
       0.12829632 0.06392869 0.050258104 -0.06516914
0000a0 c8 b4 58 be c7 29 8e 3e 80 5e 03 bd 54 33 f6 bd
       -0.21162713 0.2776625 -0.032072544 -0.12021509
0000b0 a8 02 88 3d 2f 42 6c be 44 dd b3 3d f0 23 29 3e
       0.06641132 -0.23072122 0.087824374 0.16517615
0000c0 28 d9 8e 3d 40 ec 08 3c 94 93 b0 bd d8 e4 0b 3d
       0.06975013 0.008357108 -0.08621898 0.03415379
0000d0 3f d4 03 be ac 62 d5 bd 3a de 62 be 5a 67 3a be
       -0.12873934 -0.10419211 -0.22155085 -0.18203488
0000e0 8c 81 e7 3d 35 d7 65 be 83 55 fc bb a6 5f 4e be
       0.11304006 -0.22445376 -0.0077006235 -0.20153674
0000f0 08 93 28 bd 14 6a 37 be c5 1c 28 3e fd 3a 94 3e
       -0.041155845 -0.1791156 0.16417225 0.28951254
000100 06 38 7f 3e 24 c1 97 3d 20 1e a8 3c ee 60 5b 3e
       0.24923715 0.074098855 0.020522177 0.21423694
000110 68 a8 2d 3e ef cf 36 be 76 1d 15 be 49 1d 6d be
       0.16958773 -0.17852758 -0.1456202 -0.23155703
000120 29 8b 86 3e 02 53 72 3e ec 29 7f be 66 b5 4c 3e
       0.26278046 0.23664477 -0.24918336 0.19991073
000130 67 b5 6d be 86 e3 f1 bd 40 40 1a bc 94 a4 8b bd
       -0.23213731 -0.11810975 -0.009414732 -0.068185
000140 98 4e 18 3e 58 9a 55 bd 1c e0 31 3e 0c fb d4 3d
       0.14873731 -0.052149147 0.17370647 0.10399446
000150 32 8c 25 3e 60 ae e8 bc 60 9b e9 3c 4e 72 66 3e
       0.16166762 -0.028403461 0.028516471 0.22504541
000160 c8 61 5d 3d 18 73 6d be f6 58 5d 3e e8 44 af 3d
       0.05404833 -0.23188436 0.21615967 0.08558065
000170 b4 a1 3e be f5 37 2f be 47 18 80 be b0 89 c0 bc
       -0.18616372 -0.1711119 -0.25018522 -0.023503155
000180 72 f3 05 3e ee e0 9e 3e 1a 34 6f be ba 40 eb 3b
       0.13081148 0.31030983 -0.23359719 0.007179347
000190 1c e7 d0 3e d1 43 1b be 3a 7b ae 3d 6c 2a 46 3d
       0.40801322 -0.15162589 0.08519597 0.0483803
0001a0 b8 cd 24 3e 19 53 bc 3e 15 85 80 be 4e c6 38 be
       0.160941 0.36782148 -0.25101534 -0.18044397
0001b0 de 31 57 3e de d9 cf be 6b d6 27 3e ff 47 33 be
       0.21015117 -0.40595907 0.16390388 -0.17507933
0001c0 23 b1 57 be 63 52 37 be a1 ad 26 bd aa 57 8f be
       -0.21063666 -0.17902522 -0.04069293 -0.2799657
0001d0 21 11 ca 3e 11 0e f4 3e ba 08 f1 bd 1c 47 f2 3d
       0.39466193 0.47666982 -0.117692426 0.11829969
0001e0 55 f4 34 3e 35 7f f0 3e 72 ce 6d ba 3e f3 e8 bd
       0.1767133 0.4697205 -0.0009071595 -0.1137452
0001f0 00 bf 3a bc 1e 1b 78 3d c2 00 c5 3e 05 01 1e be
       -0.011398077 0.060572736 0.3847714 -0.15430076
000200 bb df 1f be 87 64 a4 bd b3 ee 71 be 52 4f 2a be
       -0.1561269 -0.080269866 -0.23626213 -0.16631821
000210 d6 bc 7a 3e 36 64 f1 bc 21 90 39 3d e7 ef 21 be
       0.24486098 -0.02946673 0.045303468 -0.15814172
000220 9b 5a 52 3e 5b ef 3b bd c8 66 5c 3c c4 c7 06 bc
       0.20542376 -0.045882564 0.013452239 -0.008226339
000230 82 90 99 be 86 4b 82 3e 9f a9 8d 3d 7e 99 8a be
       -0.29993063 0.25448245 0.06917118 -0.2707023
000240 b9 90 40 bc 65 60 97 be 71 d1 5f be 84 4e 98 3d
       -0.011753255 -0.2956573 -0.2185724 0.07436851
000250 4c b6 88 be 0c 48 b0 3d a5 ae 85 3e 2a db 39 3c
       -0.2670158 0.08607492 0.26109806 0.011343757
000260 29 92 9a 3e 41 ee 42 3e 35 92 9c be c0 70 0a 3e
       0.30189636 0.19036199 -0.30580297 0.13519573
000270 69 64 56 be e0 c2 23 3e 4b 7a 93 be df ca b1 bd
       -0.20936741 0.15992308 -0.2880424 -0.08681273
000280 34 cc 97 3d bc 63 33 3e 34 41 9c be 60 c9 7c 3c
       0.074119955 0.17518514 -0.30518496 0.015428871
000290 24 61 2e be 35 b6 25 3e 68 09 25 3e 38 5c 0d 3d
       -0.17029244 0.16182788 0.1611687 0.034511775
0002a0 de 30 84 3e d3 cf 79 3e 00 6f 7e bd 57 82 96 3e
       0.25818533 0.24395685 -0.062117577 0.29396316
0002b0 3b a6 8d 3e 20 57 67 be 37 0c d1 3d ab fa 86 3e
       0.27665886 -0.2259183 0.10207408 0.2636312
0002c0 21 b7 96 be 86 cf 41 3e 15 12 91 3e b8 46 66 bd
       -0.2943659 0.1892682 0.28334108 -0.056219786
0002d0 3e bc ee 3d 13 ee 30 3d d8 e3 64 3d 12 fc 4e 3e
       0.11656998 0.043195795 0.05588135 0.20213345
0002e0 db 0a 4f be 8a 87 41 be 5c e6 7f bd 9a 8a 5b 3e
       -0.20218985 -0.1889936 -0.062475547 0.21439591
0002f0 11 40 0c be ea b1 59 3e 3b c2 83 3e d6 60 6c 3e
       -0.13696314 0.21259275 0.25734124 0.23083815
000300 1f 90 e6 bc 02 7f 00 3e 95 0e 42 3e e0 08 36 3e
       -0.028144894 0.1254845 0.18950875 0.17776823
000310 c9 57 8a be 7f e8 20 be 94 c5 79 bb f2 19 5e be
       -0.270201 -0.1571369 -0.003811215 -0.21689585
000320 c3 aa 70 bd c2 3e 15 be 21 3e 52 bd 63 a7 83 bd
       -0.0587566 -0.14574721 -0.051328782 -0.06428411
000330 83 6f 66 3e 25 6a eb 3d a1 cb 2b 3c 80 1e 3e be
       0.22503476 0.11494855 0.010485561 -0.18566322
000340 ce b1 90 3d 16 db e4 bd 35 3f 90 be 4b 8b 3e be
       0.070651636 -0.111746 -0.28173223 -0.18607824
000350 0f 99 1c 3e 31 95 81 3e 44 6e bd bc de 04 8a 3e
       0.15292762 0.25309137 -0.023123868 0.26956838
000360 6b 2c 08 3d 63 cf 96 bc 90 c6 d9 3d 45 40 26 be
       0.033245485 -0.018409437 0.10633576 -0.16235454
000370 cf ae 19 bd 49 e6 87 3e 7f ef 38 3e 32 9f 85 3e
       -0.037520226 0.2654288 0.1806011 0.2609802
000380 73 48 2c 3e 3d e2 d5 3d 44 d6 87 3d d8 6d 85 be
       0.16824512 0.10443542 0.06632665 -0.26060367
000390 70 ef 93 3e 3b cf 8c 3e d8 fb 8f 3e 1c 75 57 3e
       0.28893614 0.27501854 0.2812183 0.21040767
0003a0 43 82 bb bd 5a 7f a2 3b 50 1e 09 be 80 c3 76 be
       -0.09155705 0.004959029 -0.1339047 -0.24098015
0003b0 35 99 ef bd 61 96 d6 3e 99 2d 4c bd a8 35 63 3d
       -0.11699144 0.41911605 -0.049848173 0.055471092
0003c0 66 91 6c bd b8 f6 c1 bd 7d 33 b8 3d 5c 3f 25 be
       -0.05775585 -0.09470886 0.089941956 -0.16137451
0003d0 59 18 e1 3d 1c 9c 8a 3e 40 ff 36 be 73 42 0f be
       0.10990972 0.27072227 -0.17870808 -0.13990192
0003e0 5c 34 95 bb 9f 44 17 bd da ca 0d 3e 00 94 fd bd
       -0.004553361 -0.036930677 0.13846913 -0.123817444
0003f0 ae 9d 46 be 9a ce ed bd 1c 08 ae bc 11 f3 43 3e
       -0.19396088 -0.11611672 -0.021244101 0.19135691

StatefulPartitionedCall/model/dense_5/BiasAdd/ReadVariableOp:0 f4 [32]
000000 6d 02 0e bc f3 e5 00 3e 8c eb 03 bd c1 b2 08 bd
       -0.008667571 0.12587719 -0.032207057 -0.033373598
000010 0f 4d 0b 3e 35 08 82 3d f7 70 0c 3e 16 ff 31 bd
       0.13603614 0.063492216 0.13714968 -0.04345616
000020 a1 20 13 3e 81 02 10 3e 7a 59 e4 bc 3e e1 c2 bb
       0.14367916 0.14063455 -0.027874697 -0.005947261
000030 b8 2c 0d bd b1 ec af bd e1 06 10 3e 00 00 00 00
       -0.034466475 -0.08590067 0.14065124 0.0
000040 87 c3 6f bc 00 00 00 00 07 f4 c3 bb 00 00 00 00
       -0.01463402 0.0 -0.005980018 0.0
000050 3d 8f dd 3d f4 5c 12 3e 89 62 62 bc 0b d7 23 3c
       0.10818336 0.14293271 -0.013817438 0.010000001
000060 41 95 07 3e 46 78 12 3e b5 11 67 3d 00 00 00 00
       0.1324053 0.14303693 0.05641337 0.0
000070 81 9f 8c bb 07 fa 68 bc bc 0b ef bd 2e 8d 23 bc
       -0.0042914753 -0.014219767 -0.1167216 -0.00998239

StatefulPartitionedCall/model/dense_4/MatMul/ReadVariableOp:0 f4 [32, 32]
000000 fd 19 9d be 51 23 95 bd 6b 9a 4e be f6 d6 02 bd
       -0.3068389 -0.07282127 -0.20176093 -0.031943284
000010 5c d9 2f bd 84 cb 9f bd 7a d9 62 3e 0f d2 08 3e
       -0.0429319 -0.078024894 0.22153273 0.13361381
000020 af 11 31 be 92 88 e4 3d 4b 6f 6f 3d 6c 04 b4 be
       -0.17291902 0.11158861 0.058455747 -0.35159624
000030 2d cd 91 3e e7 97 56 3f 45 c3 6b be f5 f2 7d be
       0.2847685 0.83825535 -0.23023708 -0.24799712
000040 f0 cf 9b be 23 51 23 bf 3a f7 85 be 37 7e 85 be
       -0.3043208 -0.6379568 -0.2616518 -0.26072857
000050 56 14 2f 3e 87 28 30 3e 7f bd 19 3e 71 b6 ac be
       0.17097601 0.1720296 0.15013693 -0.33732942
000060 4a b8 b0 3d 1a 7b 49 be eb 7e 5a 3e 97 15 72 be
       0.086289 -0.19675866 0.21337478 -0.23641048
000070 79 c7 8b be aa c3 5b be ad a7 52 be 7f 88 7c be
       -0.27300623 -0.21461359 -0.20571776 -0.24661444
000080 8c b9 05 3d 7c ff f8 bd 80 b0 e8 bb a8 d9 b0 3e
       0.032647654 -0.12158105 -0.0071011186 0.3454106
000090 a7 4e 31 3e 60 d8 06 3c 34 c3 33 3c 1f a0 4e be
       0.1731516 0.008230299 0.010971833 -0.20178269
0000a0 11 2a a4 3e 9e ed 50 be 0e f6 9a bd b3 d4 be 3d
       0.32063344 -0.20403144 -0.075664625 0.09317913
0000b0 8c 1e 80 be 93 a5 38 be 60 e6 d9 3d 7a 50 ae 3e
       -0.25023305 -0.18031912 0.10639644 0.34045774
0000c0 d9 d6 fd 3d ba 7b 6a bc 38 58 5d be 87 f1 f0 3d
       0.123944946 -0.014311725 -0.21615684 0.11764818
0000d0 47 44 9f 3e c0 37 44 3e 5f 70 1e 3e 5e c6 83 bc
       0.3110678 0.19161892 0.15472554 -0.0160858
0000e0 47 f2 0b 3d ba c8 ac be 2f f7 1c be 31 d5 e1 3d
       0.0341666 -0.33746892 -0.15328668 0.11026991
0000f0 3d fd 86 3b 01 77 43 3e e0 08 5e 3d d8 61 28 3e
       0.004119544 0.19088365 0.054207683 0.16443574
000100 22 b7 c8 bd fe 18 5f be 1e 66 99 be 7d cd 70 be
       -0.09800555 -0.21786878 -0.29960722 -0.23515888
000110 af ca 34 3e 34 0c 30 3e c7 78 50 3e 1a f8 66 3e
       0.17655443 0.17192155 0.20358573 0.2255558
000120 81 c2 29 be de 94 19 3e 56 3e da bd c0 40 a8 3c
       -0.16578104 0.14998195 -0.10656421 0.020538688
000130 fe b6 00 bd 96 4f 13 bd c8 a7 a9 bd 40 ac 86 bd
       -0.031424515 -0.03596457 -0.08283955 -0.06575823
000140 50 4a 96 bc ff 97 49 3e ca 58 21 3e 77 4d 22 3e
       -0.018345982 0.19686888 0.15756527 0.15849863
000150 85 f3 e8 3d 32 32 93 be 2f 6d 20 3e b1 7d 8f be
       0.11374573 -0.28749233 0.1566665 -0.28025582
000160 c8 79 15 be a8 6d 5f be c8 3a 8b be 14 5e 10 3e
       -0.14597237 -0.21819174 -0.27193284 0.14098388
000170 38 82 82 be 0e cd e4 bd 97 fc 99 3e 86 cb 93 be
       -0.25489974 -0.111719236 0.30075523 -0.28866214
000180 ba 9f 79 3e 52 a4 58 be db b9 94 3e 7b 6c f8 bd
       0.24377337 -0.21156433 0.29048046 -0.12130066
000190 78 06 ec 3c 4a 07 9b be ce b1 27 3e ec d8 14 be
       0.028811678 -0.30279 0.16376421 -0.14535874
0001a0 1b 00 82 3e 73 fb 1b 3c 04 28 d9 3d 51 88 bc be
       0.25390705 0.009520399 0.106033355 -0.3682275
0001b0 f4 54 16 be f1 a8 8f bd 5b 82 b5 3d dd 7a 4c bc
       -0.14680845 -0.07014645 0.08862754 -0.012480465
0001c0 7e 71 52 3d 86 81 f4 bd 85 c0 29 bc 1f 87 8f be
       0.051377766 -0.11938767 -0.010360842 -0.28032777
0001d0 d2 38 70 3e d4 2b 86 3b bf d5 97 3e f1 79 d6 bc
       0.23459175 0.00409458 0.29655263 -0.026181193
0001e0 10 4f 05 3e 0e 3f 22 b9 d0 cd 75 be db bf 5c bd
       0.13018441 -0.00015473014 -0.24004292 -0.053893905
0001f0 43 e5 84 bd 4f 7e 3d be 7c f4 16 3e bf 39 a3 3d
       -0.06489041 -0.18505214 0.14741701 0.079699986
000200 6c d9 4d be 03 c4 d7 3d cc 6e ee 3d 75 d9 89 be
       -0.20102471 0.10535433 0.116422266 -0.2692372
000210 2f f3 50 3a 1b ec 53 be 20 cc 02 3e 8c 60 18 bf
       0.00079708075 -0.20695536 0.1277318 -0.5952232
000220 1c ec 7f 3d 87 4f d8 3e e5 70 88 3e 9d e7 f1 bd
       0.06248103 0.42248175 0.26648632 -0.11811755
000230 0f 7f 87 3e d2 ed f0 3d e4 18 89 be 44 60 a8 3e
       0.26464126 0.117641106 -0.26776803 0.32885945
000240 98 94 5f be 81 19 17 bd 12 c7 3d 3e c2 81 3b be
       -0.21834028 -0.036889557 0.1853297 -0.18311217
000250 ce 96 25 3e 86 99 fe bd c3 84 b4 3e 5c 6f 34 be
       0.16170809 -0.12431626 0.3525754 -0.17620605
000260 8a 56 73 3e d8 b3 44 be 3d 6e 7f be b3 16 c7 be
       0.23763481 -0.1920923 -0.24944396 -0.38884506
000270 e4 34 4e be d9 cd 3d be 4a df 0c be 52 49 8b be
       -0.20137364 -0.18535556 -0.13757053 -0.27204376
000280 25 f6 a0 bd 76 1c 43 3d 08 8b f8 3d b5 00 2f be
       -0.07859448 0.047634564 0.12135893 -0.17090113
000290 f7 a8 3f 3c 84 10 81 bd 5b 3a 45 be 94 da 5f bd
       0.011697999 -0.06301978 -0.19260542 -0.05465181
0002a0 35 b1 87 3d c2 e1 2f bd 0c a3 85 be 47 0b ac 3e
       0.066255964 -0.04293991 -0.26100957 0.33602354
0002b0 82 a9 e6 3d 2e db c1 3e 63 1e 58 3e b7 d4 cd 3d
       0.112628 0.37862533 0.21105342 0.10050338
0002c0 4f 0a 36 3e 76 90 a4 3e 1e 0f 4b 3e ae ca 93 be
       0.1777737 0.32141465 0.19829985 -0.2886557
0002d0 dc 5c 78 bc ac 01 8e be 0d 3d 94 3d 12 fe a1 be
       -0.015158858 -0.2773565 0.07238207 -0.31639153
0002e0 41 b5 af 3c bc 68 92 3e 6e da ef 3d 8e 7f 89 bc
       0.021448733 0.2859553 0.11711584 -0.016784456
0002f0 70 dd 65 be 8f 13 92 be 4c 32 c9 bd 7d b4 88 3d
       -0.22447753 -0.28530547 -0.098240465 0.066750504
000300 60 72 e6 bb c0 4f 2d bd 93 74 04 be 26 3d e8 bd
       -0.0070326775 -0.042312384 -0.12935095 -0.11339788
000310 ab 0d 7e 3e 52 d3 c0 3d 5c 5d 5b bd 76 37 f0 bd
       0.24809901 0.09415306 -0.05355583 -0.11729328
000320 af ab be be 64 d2 b1 be 66 f3 03 be 12 96 69 be
       -0.3724036 -0.34730828 -0.12885818 -0.22811154
000330 b3 48 71 3c a4 0e 78 bf 43 ce 8d be de 71 6e be
       0.0147268055 -0.9689734 -0.27696428 -0.23285624
000340 47 9b c6 3d b8 0d cc be 8d 7c 06 be 95 05 27 be
       0.096975856 -0.39854217 -0.1313345 -0.16310723
000350 cb 2e 90 3c e0 be 06 3e 4c a3 d4 bb 2d 71 89 3d
       0.017600438 0.1315875 -0.006489193 0.0671104
000360 67 02 05 3d a7 f8 48 3e a7 9e 03 3e fc 55 02 be
       0.032472994 0.19626103 0.1285349 -0.12728113
000370 10 42 5c 3d 89 b4 8a 3e 74 03 c5 3d ab de 86 be
       0.05377394 0.27090862 0.09619799 -0.26341757
000380 b7 e3 d6 3c 1d 42 87 be e8 41 7c 3d 69 48 0d bd
       0.02623163 -0.26417628 0.06158629 -0.034492884
000390 9a f7 50 be 70 e3 a3 bd 96 87 77 be 94 23 5a 3e
       -0.20406953 -0.08002365 -0.24172816 0.21302634
0003a0 a6 7d 49 3d 12 28 d7 3d 02 cb 41 3e fe c4 34 3e
       0.049192093 0.1050569 0.18925098 0.17653272
0003b0 69 76 4f bd 53 a2 a5 3e c1 78 55 be 16 78 75 be
       -0.050650034 0.32350406 -0.20846845 -0.2397159
0003c0 85 3a 33 3d 52 a0 90 3e 6d 0b 14 be c4 7b 27 3e
       0.04375698 0.28247315 -0.14457484 0.16355807
0003d0 9e 08 95 bd 31 48 0f 3e 75 78 85 3e 82 bd 78 bd
       -0.07277034 0.13992383 0.26068464 -0.060727604
0003e0 45 29 6b be dc 67 c0 bd 9a e4 a5 be 1d f1 04 3a
       -0.22964962 -0.093948096 -0.32400972 0.0005071329
0003f0 c3 3c f4 3d bd 32 3a be 95 26 80 be cd a6 96 3d
       0.11925652 -0.18183418 -0.25029436 0.073560335

StatefulPartitionedCall/model/dense_4/BiasAdd/ReadVariableOp:0 f4 [32]
000000 ff 34 08 3e 87 af a3 bd 00 00 00 00 57 42 6c 3e
       0.13301466 -0.079924636 0.0 0.23072182
000010 ca 6c fc 3d 8d cb 8d bc 04 40 6b bd 99 31 15 3e
       0.12325437 -0.017308975 -0.057434097 0.14569701
000020 8a ac cc 3d 07 2a e9 bd 78 93 3a bd 84 6d a1 bd
       0.09993847 -0.11384969 -0.045550793 -0.078822166
000030 dd 53 7b 3d 1b 75 8d 3c 7d 58 51 bd 91 00 fc 3d
       0.061359275 0.017267754 -0.05110978 0.123047955
000040 6e a6 bb 3d 90 7b 9e 3c 35 52 36 bc 41 96 4d bd
       0.09162603 0.019346029 -0.011127998 -0.05019212
000050 cd f3 fe 3d 3e 8d fe 3d c3 a8 04 3e 9d 9c c0 3d
       0.12448845 0.124292836 0.12955002 0.094048716
000060 74 fe d5 3d 24 a5 9e 3d 6d 74 b5 bc fd ad c2 3c
       0.10448924 0.07746342 -0.022150243 0.023764605
000070 2e 47 f1 3d 75 54 18 bd f7 a3 9f bc 89 a9 96 bc
       0.117811546 -0.03718992 -0.019487364 -0.018391388
